Model architecture:
DualStreamBERT(
  (stream1): TemporalTransformer(
    (input_projection): Linear(in_features=128, out_features=256, bias=True)
    (pos_drop): Dropout(p=0.3, inplace=False)
    (blocks): ModuleList(
      (0): Block(
        (norm1): LayerNorm((256,), eps=1e-05, elementwise_affine=True)
        (attn): Attention(
          (qkv): Linear(in_features=256, out_features=768, bias=True)
          (attn_drop): Dropout(p=0.1, inplace=False)
          (proj): Linear(in_features=256, out_features=256, bias=True)
          (proj_drop): Dropout(p=0.3, inplace=False)
        )
        (drop_path): Identity()
        (norm2): LayerNorm((256,), eps=1e-05, elementwise_affine=True)
        (mlp): Mlp(
          (fc1): Linear(in_features=256, out_features=1024, bias=True)
          (act): GELU(approximate='none')
          (fc2): Linear(in_features=1024, out_features=256, bias=True)
          (drop): Dropout(p=0.3, inplace=False)
        )
      )
      (1-3): 3 x Block(
        (norm1): LayerNorm((256,), eps=1e-05, elementwise_affine=True)
        (attn): Attention(
          (qkv): Linear(in_features=256, out_features=768, bias=True)
          (attn_drop): Dropout(p=0.1, inplace=False)
          (proj): Linear(in_features=256, out_features=256, bias=True)
          (proj_drop): Dropout(p=0.3, inplace=False)
        )
        (drop_path): DropPath()
        (norm2): LayerNorm((256,), eps=1e-05, elementwise_affine=True)
        (mlp): Mlp(
          (fc1): Linear(in_features=256, out_features=1024, bias=True)
          (act): GELU(approximate='none')
          (fc2): Linear(in_features=1024, out_features=256, bias=True)
          (drop): Dropout(p=0.3, inplace=False)
        )
      )
    )
    (norm): LayerNorm((256,), eps=1e-05, elementwise_affine=True)
  )
  (stream2): TemporalTransformer(
    (input_projection): Linear(in_features=128, out_features=256, bias=True)
    (pos_drop): Dropout(p=0.3, inplace=False)
    (blocks): ModuleList(
      (0): Block(
        (norm1): LayerNorm((256,), eps=1e-05, elementwise_affine=True)
        (attn): Attention(
          (qkv): Linear(in_features=256, out_features=768, bias=True)
          (attn_drop): Dropout(p=0.1, inplace=False)
          (proj): Linear(in_features=256, out_features=256, bias=True)
          (proj_drop): Dropout(p=0.3, inplace=False)
        )
        (drop_path): Identity()
        (norm2): LayerNorm((256,), eps=1e-05, elementwise_affine=True)
        (mlp): Mlp(
          (fc1): Linear(in_features=256, out_features=1024, bias=True)
          (act): GELU(approximate='none')
          (fc2): Linear(in_features=1024, out_features=256, bias=True)
          (drop): Dropout(p=0.3, inplace=False)
        )
      )
      (1-3): 3 x Block(
        (norm1): LayerNorm((256,), eps=1e-05, elementwise_affine=True)
        (attn): Attention(
          (qkv): Linear(in_features=256, out_features=768, bias=True)
          (attn_drop): Dropout(p=0.1, inplace=False)
          (proj): Linear(in_features=256, out_features=256, bias=True)
          (proj_drop): Dropout(p=0.3, inplace=False)
        )
        (drop_path): DropPath()
        (norm2): LayerNorm((256,), eps=1e-05, elementwise_affine=True)
        (mlp): Mlp(
          (fc1): Linear(in_features=256, out_features=1024, bias=True)
          (act): GELU(approximate='none')
          (fc2): Linear(in_features=1024, out_features=256, bias=True)
          (drop): Dropout(p=0.3, inplace=False)
        )
      )
    )
    (norm): LayerNorm((256,), eps=1e-05, elementwise_affine=True)
  )
  (fusion_layers): Sequential(
    (0): Linear(in_features=512, out_features=256, bias=True)
    (1): GELU(approximate='none')
    (2): Dropout(p=0.3, inplace=False)
    (3): Linear(in_features=256, out_features=128, bias=True)
    (4): GELU(approximate='none')
    (5): Dropout(p=0.3, inplace=False)
    (6): Linear(in_features=128, out_features=2, bias=True)
  )
)

Epoch 001/20 | Train Loss: 0.6901, Acc: 56.52%, P: 59.02%, R: 87.80%, F1: 70.59% | Val Acc: 47.06%, P: 50.00%, R: 88.89%, F1: 64.00% | LR: 0.000994
Epoch 002/20 | Train Loss: 0.6754, Acc: 57.97%, P: 52.94%, R: 84.38%, F1: 65.06% | Val Acc: 64.71%, P: 80.00%, R: 44.44%, F1: 57.14% | LR: 0.000976
Epoch 003/20 | Train Loss: 0.5897, Acc: 63.77%, P: 71.43%, R: 17.86%, F1: 28.57% | Val Acc: 58.82%, P: 100.00%, R: 22.22%, F1: 36.36% | LR: 0.000946
…
